best_model.pth (torch, 5287 bytes, 6 tensors)

encoder.weight f4 [48]
00000000: 16c8 143d b0e9 553e 8f34 bbbe cdd2 b5be
00000010: 2ded 283f 43c7 eb3d d4ca a83e ad5f fcbe
00000020: 3443 ddbc 8da5 443f f4b6 22bf e025 f13e
00000030: 9965 2abf 3909 c5be e6d1 473f ba08 d5bc
00000040: af7d edbd 7371 f1be 45b2 0a3e 873a b5bd
00000050: 5e7a bbbe 5cc5 283e 6183 4abf 5744 1e3f
00000060: a275 1f3f 7818 2e3f ef32 6b3f 9a57 813c
00000070: 4dc9 0e3f 639e a6be 4f2c f13e 1836 5d3f
00000080: 927f 7a3f f079 093f 6817 86be a0f2 a53e
00000090: 8836 74be aa12 223f 9c99 51bf 204b 0a3e
000000a0: b89a 1b3f 3893 2bbf 04df 723f 403e d73e
000000b0: 565a 2a3f bcc3 913e 9cec f7be 8a1a 18bf
0.03632363 0.20889926 -0.36563537 -0.3551239 0.659869 0.115126155 0.32967246 -0.49291745
-0.027009584 0.7681511 -0.63560414 0.4709921 -0.66561276 -0.384836 0.78054655 -0.026005138
-0.11596238 -0.47156867 0.13544567 -0.08849054 -0.36616796 0.16481537 -0.7910672 0.6182303
0.6228887 0.68006086 0.91874593 0.015788842 0.5577591 -0.32542714 0.47104117 0.86410666
0.97850907 0.53701687 -0.26189733 0.3241167 -0.23848927 0.6330973 -0.81875014 0.1350522
0.6078296 -0.67021513 0.94871545 0.4203968 0.6654409 0.28469646 -0.48422706 -0.59415495

encoder._weights f4 [48]
00000000: 16c8 143d b0e9 553e 8f34 bbbe cdd2 b5be
00000010: 2ded 283f 43c7 eb3d d4ca a83e ad5f fcbe
00000020: 3443 ddbc 8da5 443f f4b6 22bf e025 f13e
00000030: 9965 2abf 3909 c5be e6d1 473f ba08 d5bc
00000040: af7d edbd 7371 f1be 45b2 0a3e 873a b5bd
00000050: 5e7a bbbe 5cc5 283e 6183 4abf 5744 1e3f
00000060: a275 1f3f 7818 2e3f ef32 6b3f 9a57 813c
00000070: 4dc9 0e3f 639e a6be 4f2c f13e 1836 5d3f
00000080: 927f 7a3f f079 093f 6817 86be a0f2 a53e
00000090: 8836 74be aa12 223f 9c99 51bf 204b 0a3e
000000a0: b89a 1b3f 3893 2bbf 04df 723f 403e d73e
000000b0: 565a 2a3f bcc3 913e 9cec f7be 8a1a 18bf
0.03632363 0.20889926 -0.36563537 -0.3551239 0.659869 0.115126155 0.32967246 -0.49291745
-0.027009584 0.7681511 -0.63560414 0.4709921 -0.66561276 -0.384836 0.78054655 -0.026005138
-0.11596238 -0.47156867 0.13544567 -0.08849054 -0.36616796 0.16481537 -0.7910672 0.6182303
0.6228887 0.68006086 0.91874593 0.015788842 0.5577591 -0.32542714 0.47104117 0.86410666
0.97850907 0.53701687 -0.26189733 0.3241167 -0.23848927 0.6330973 -0.81875014 0.1350522
0.6078296 -0.67021513 0.94871545 0.4203968 0.6654409 0.28469646 -0.48422706 -0.59415495

decoder.linear1.weight f4 [32, 2]
00000000: 64e3 7abe a800 8ebe 88b0 2abf 42c1 f73d
00000010: c819 a33c a938 07bf edb2 113f 15ce 5a3e
00000020: c0e3 86be 8323 f8be 6052 0f3f 3ba0 eebe
00000030: c700 3b3e 2754 863e c677 40be 2de5 d1be
00000040: f5b0 5abe d80c 47be 7e53 043f 7cdb 99be
00000050: abc6 1e3e df38 b7be 57e9 b7be aa13 d8bd
00000060: c4a1 233f 316c 23bf a3d1 d4be 3224 323e
00000070: 2d4e e7be 9f57 c13e 34d2 41be 37e4 293f
00000080: 7ba6 e7be bde4 27bf aa65 cdbe 7fe6 f83e
00000090: c5a6 6e3d 34a6 583e 8bf2 133f eebb 0f3f
000000a0: 273b 873d dfc2 b13e 6a45 243f cff8 383e
000000b0: dc69 74bd 47cb 92be 450e 2bbf 1eb2 4fbe
000000c0: 877d 283f bffa 1dbf 16ba 953d 0625 2bbf
000000d0: 7cc1 fb3d c873 aebe a342 86be 3290 a23d
000000e0: 089f 2f3f ea8b 1d3f cfb4 28bf 0e25 d4be
000000f0: 5c7c 183f 052c a43e cbfe 283f e5bb 7ebe
-0.24500805 -0.27734876 -0.66675615 0.12097408 0.019909754 -0.5282083 0.56913644 0.21367677
-0.26345634 -0.48464593 0.5598507 -0.4660662 0.18262015 0.26236078 -0.1879569 -0.4099516
-0.21356566 -0.19438493 0.516899 -0.30050266 0.15505473 -0.35785577 -0.35920212 -0.105506256
0.6391871 -0.6383696 -0.4156619 0.1739662 -0.4517683 0.37762162 -0.18927842 0.66363853
-0.45244202 -0.655834 -0.40116626 0.48613355 0.058264513 0.21157151 0.57791966 0.5614613
0.06603079 0.34718987 0.6416842 0.18063663 -0.059671268 -0.28670713 -0.6681865 -0.2028279
0.6581654 -0.61710733 0.07310884 -0.6685337 0.122927636 -0.3407271 -0.26222715 0.07937659
0.6860204 0.61541617 -0.6590089 -0.4143452 0.5956476 0.32064834 0.66013783 -0.24876364

decoder.linear1.bias f4 [32]
00000000: 23bf c2be 114a 3fbd b1e5 0b3f a5e3 b9be
00000010: ffa8 383e 435d af3e 6008 e7bc a52d 1cbf
00000020: e510 d3bd 8e7b dc3e 798f c13e 3049 1c3e
00000030: c916 2abf 54d8 153f 0f0a 33bc 395e bb3e
00000040: 7d08 fcbe 5293 53be 9add 263e 8ec7 2abf
00000050: c504 2ebf 0350 973e c246 943d fbb4 2e3e
00000060: 088c 303e bdfa 093f a6ac 5f3e f96d e8be
00000070: 7657 d83e 906e a03e 214a 5cbe 2e16 2b3f
-0.3803645 -0.046701495 0.54647356 -0.36306491 0.18033217 0.3425084 -0.028202236 -0.6100715
-0.10305957 0.43063015 0.37804773 0.15262294 -0.6644102 0.58533216 -0.010927691 0.36595324
-0.49225226 -0.20661667 0.16295472 -0.66710746 -0.6797603 0.29553232 0.072400585 0.17061226
0.17240918 0.5389822 0.21843204 -0.45396402 0.42254227 0.31334352 -0.21512653 0.6683072

decoder.linear2.weight f4 [16, 32]
00000000: 60d5 fbbd 82f8 bfbd b07b b63d d520 18bd
00000010: de56 eabd ff31 f33c d2ed 263e 534d c93c
00000020: ac4f f7bd 81ab 063e 6da8 143d 25f8 36be
00000030: 71a7 373c 2dd5 d43d b0d1 e73d 6204 9d3c
00000040: 4f0b a33d 8630 0b3e e6db 343d 1de9 803c
00000050: a9e5 c93d b577 12be 3e7c 67bd 1696 d93d
00000060: fb0c 3d3d 6868 97bd 837b dbbd e253 263e
00000070: ba9f 123e 1d72 9f3d f120 babd 72d3 913d
00000080: 0a75 b73d a89e 18bd 14b5 163e b99d babb
00000090: be71 853c b8c3 273e 0a03 a0bd 0e21 343e
000000a0: bc44 11be 6551 d13c 402c 32be 5521 143e
000000b0: 47b2 1cbd c6bb bbbd 79e8 16be 9c8a c33d
000000c0: c7f0 adbd f320 93bd 93d1 38bc ac7f 003e
000000d0: 9f4f babd 9268 1abe e416 08be 1e64 b73c
000000e0: 0e37 b3bd 849f 36be 0a51 31be 6fbf b83d
000000f0: 49fc 8dbd a263 2cbe 9383 ffbc ee0c d53d
00000100: 86d2 0c3e 6829 69bd 326c bdbc bdd5 31be
00000110: 9593 a23d c9a9 40bd 7076 7abd dd02 ccbc
00000120: 2498 b63c e399 c23c 252d e13d c380 e9bd
00000130: 2694 f4bd cd63 6cbd df24 a2bd 1012 40bd
00000140: 8187 febd e4d1 febd 004e 01be 4adb 79bd
00000150: a2a1 f1bd ba92 213e 2500 053e 192b 423d
00000160: b700 cb3d 7ce9 9abc 27e5 71bd 2bb3 8a3d
00000170: cf91 26be bb82 27be 2c97 23bd 1ee9 1d3e
00000180: 719b 203e 1f73 2e3d f3d5 80bd 8c90 a0bd
00000190: 66ab 8b3d e86b 143d bede f73d d078 eabd
000001a0: d675 273e a0f5 b93a 6631 85bd 2d63 a0bd
000001b0: 7a5c 09be dd7d e83c 16e1 55bd 248e 35be
000001c0: 4917 0c3e f00e d93d ea6c 14bd 7218 123d
000001d0: bc2d 0c3e f83f 2bbe e56e 6d3c ae28 253e
000001e0: 17d2 b7bd dc0a 85bd f074 efbc a7a7 e7bd
000001f0: ed6f ac3d 8b8a 03be 4ebf adbd 4c12 c83b
00000200: 5710 06be 9872 0dbe 9a96 2cbe 24e5 71bc
00000210: dd34 0e3e b288 cebd 642a 03be 8446 e9bd
00000220: 30ea e9bd 6bf0 96bc 21de c1bc dfbc 00be
00000230: dd18 06bd a501 d33d cd20 4cbd 1d65 273e
00000240: 695f 0fbe eb37 94bd de02 3abe 9c5e 4c3d
00000250: 2d26 e93c e788 573d 69df 283e b0ac 8e3d
00000260: 1afc 953d eae7 d13c 02b9 aa3d 3f41 8abd
00000270: 9e5d f5bd 83de 4fbd 659f c43d 94da 13be
00000280: 7962 b13d 3644 00be 9573 d13d 6515 b2bd
00000290: 7cb1 87bc 2fcc b63d 5865 783d 2cc1 423d
000002a0: 3f0f c1bd 69b8 0dbe c986 5f3d db53 d93d
000002b0: e04b 193e 8162 2cbe 026e 24be 2ac2 203e
000002c0: e4cb 97bc c17a e2bc 19ce c73d d3e4 f23d
000002d0: f9c8 073e 9515 143e 33ee 3d3d 79c5 183e
000002e0: f246 90bd 9871 393d 7be5 61bd 32db bfbc
000002f0: 29fc 233e 3ab2 273e 5d6a b9bd 5742 9c3d
00000300: 4804 bc3d f05b 26be f7ee bd3b d432 cbbd
00000310: c97d 0fbe 2c9a 953c 7415 e3bd c3de fabd
00000320: 7615 a73d b48f 32bd a49d 85bd dfcd cc3d
00000330: 75bc bb3b 26c6 48bd 498f 0fbe 4862 0abe
00000340: 4d8d 343e 99cc 13be 7282 a93d 5330 af3d
00000350: d7c3 ae3c 8425 93bd c0a2 adbd 8d64 de3d
00000360: 4e19 cabd 5f23 dabc 74a8 a0bd 8bad dcbc
00000370: 88ac 2fbe 959f f3bd 74ac ab3b 089c d8bd
00000380: 7294 96bd 7924 1a3d dffc 80bd cc1f 21be
00000390: 7fed 233e 179f a73d 683e bfbd 2604 213e
000003a0: 916f a6bd 03e7 24bc 6cac 26be e7cf 073e
000003b0: 645d 853d 97b2 2c3e f381 b83d 8f71 793d
000003c0: 1078 093d dc82 d83d ca20 20be 1158 0fbe
000003d0: e746 9b3d cc0a 63bd f419 20be 09be d7bd
000003e0: fd8c 0d3e 40cf e9bd edb4 103e d2fb 80bd
000003f0: 7734 73bd 1b0c 0abe 10bf 76bd 6c59 3abe
-0.122965574 -0.09373571 0.0891031 -0.037140686 -0.1144235 0.029686926 0.16301659 0.024573004
-0.12075743 0.13151361 0.036293436 -0.17868097 0.011209355 0.103922226 0.113192916 0.019167129
0.07961141 0.13592729 0.044155024 0.015736157 0.09858257 -0.14303477 -0.05651497 0.1062433
0.046154957 -0.07392961 -0.10716917 0.16242936 0.14318743 0.07785437 -0.09088314 0.07120408
0.0895787 -0.03726068 0.14717513 -0.0056950715 0.016289588 0.16383255 -0.0781308 0.17590734
-0.14186376 0.025551507 -0.17399693 0.1446584 -0.038255956 -0.09166674 -0.14737119 0.09547922
-0.0849319 -0.07184019 -0.011280435 0.12548703 -0.09097218 -0.15078953 -0.13289982 0.022386607
-0.08750735 -0.17834288 -0.1731607 0.09020888 -0.06932885 -0.16834882 -0.03119067 0.10402857
0.13752183 -0.056924254 -0.02312288 -0.17366691 0.07938305 -0.04703692 -0.061148107 -0.02490371
0.022289343 0.02375502 0.10994939 -0.114015125 -0.119423196 -0.057712365 -0.07917189 -0.046892226
-0.12428189 -0.12442377 -0.12627411 -0.061000146 -0.11798407 0.15778628 0.12988336 0.047404382
0.09912246 -0.018910162 -0.059056427 0.06772455 -0.16266559 -0.16358463 -0.03993909 0.15420958
0.15684296 0.042590257 -0.062908076 -0.0784007 0.06819801 0.03623572 0.121030316 -0.114488244
0.16353545 0.0014187582 -0.06503563 -0.07831416 -0.13414183 0.028380329 -0.05221661 -0.17730004
0.13680758 0.10598552 -0.03623668 0.035667844 0.13689321 -0.16723621 0.014491771 0.161288
-0.08975618 -0.06496212 -0.029230565 -0.11311274 0.08419786 -0.12845819 -0.08483754 0.006105697
-0.1309217 -0.13813245 -0.16854325 -0.014764104 0.13887353 -0.10084666 -0.1280914 -0.11390403
-0.11421621 -0.018425187 -0.02366549 -0.12572049 -0.032738555 0.10303048 -0.04983597 0.16347165
-0.1400124 -0.07237228 -0.18165156 0.049894914 0.028460586 0.052620795 0.16491474 0.06966531
0.07323475 0.02562328 0.08336069 -0.06750726 -0.11980747 -0.050749313 0.096007146 -0.1443885
0.0866136 -0.1252602 0.10227124 -0.08695487 -0.016564123 0.08925664 0.060643524 0.047547504
-0.09426736 -0.13839878 0.0545719 0.10611697 0.1497035 -0.16834451 -0.1605759 0.15699068
-0.01852984 -0.027646424 0.09756107 0.11860051 0.13260259 0.14461358 0.046369743 0.1491908
-0.07044782 0.045274347 -0.05515049 -0.02341995 0.1601416 0.16376582 -0.0905349 0.07629841
0.09180504 -0.16246009 0.005796309 -0.09921804 -0.14012827 0.018261991 -0.11088076 -0.1224952
0.0815839 -0.043594077 -0.06524208 0.10000204 0.005729253 -0.049017094 -0.14019503 -0.13514054
0.17632027 -0.14433517 0.082768336 0.08554139 0.021333618 -0.0718489 -0.08478308 0.10859022
-0.09868108 -0.026628194 -0.0784463 -0.02693822 -0.17155659 -0.11895672 0.005239064 -0.105766356
-0.073525324 0.03763244 -0.06298231 -0.15734786 0.16008566 0.08184641 -0.09338075 0.15724239
-0.08126748 -0.010064843 -0.16276711 0.13262902 0.065119535 0.16865002 0.09009161 0.060899314
0.033561766 0.105718344 -0.15637508 -0.13998438 0.07581883 -0.05543022 -0.156349 -0.10534293
0.13823314 -0.11416483 0.14131518 -0.06298031 -0.059376206 -0.1348118 -0.060240805 -0.18198174

decoder.linear2.bias f4 [16]
00000000: 2129 2b3e d611 413c 472e efbd fc38 833c
00000010: 0021 c9bd 69d1 d93c 2202 573b 33d1 03be
00000020: 0a21 903d ae48 2dbe f7bf e0bd 58a8 1bbe
00000030: fbfd 143e f423 143e b28f af3d c74b 2a3c
0.16714908 0.011784038 -0.116787486 0.016018383 -0.098207474 0.026589112 0.0032807668 -0.12872772
0.07037552 -0.16922256 -0.109741144 -0.15200937 0.14550011 0.1446684 0.085723296 0.010394043
